…
    "model.add(Dense(1,activation='sigmoid'))\n",
    "\n",
    "model.compile(loss=keras.losses.binary_crossentropy,optimizer='adam',metrics=['accuracy'])"
   ]
  },
  {
   "cell_type": "code",
   "execution_count": 36,
   "metadata": {},
   "outputs": [
    {
     "name": "stdout",
     "output_type": "stream",
     "text": [
      "Model: \"sequential_3\"\n",
      "_________________________________________________________________\n",
      "Layer (type)                 Output Shape              Param #   \n",
      "=================================================================\n",
      "conv2d_9 (Conv2D)            (None, 222, 222, 32)      896       \n",
      "_________________________________________________________________\n",
      "conv2d_10 (Conv2D)           (None, 220, 220, 128)     36992     \n",
      "_________________________________________________________________\n",
      "max_pooling2d_7 (MaxPooling2 (None, 110, 110, 128)     0         \n",
      "_________________________________________________________________\n",
      "dropout_9 (Dropout)          (None, 110, 110, 128)     0         \n",
      "_________________________________________________________________\n",
      "conv2d_11 (Conv2D)           (None, 108, 108, 64)      73792     \n",
      "_________________________________________________________________\n",
      "max_pooling2d_8 (MaxPooling2 (None, 54, 54, 64)        0         \n",
      "_________________________________________________________________\n",
      "dropout_10 (Dropout)         (None, 54, 54, 64)        0         \n",
      "_________________________________________________________________\n",
      "conv2d_12 (Conv2D)           (None, 52, 52, 128)       73856     \n",
      "_________________________________________________________________\n",
      "max_pooling2d_9 (MaxPooling2 (None, 26, 26, 128)       0         \n",
      "_________________________________________________________________\n",
      "dropout_11 (Dropout)         (None, 26, 26, 128)       0         \n",
      "_________________________________________________________________\n",
      "flatten_3 (Flatten)          (None, 86528)             0         \n",
      "_________________________________________________________________\n",
      "dense_5 (Dense)              (None, 64)                5537856   \n",
      "_________________________________________________________________\n",
      "dropout_12 (Dropout)         (None, 64)                0         \n",
      "_________________________________________________________________\n",
      "dense_6 (Dense)              (None, 1)                 65        \n",
      "=================================================================\n",
      "Total params: 5,723,457\n",
      "Trainable params: 5,723,457\n",
      "Non-trainable params: 0\n",
      "_________________________________________________________________\n"
     ]
    }
   ],
   "source": [
    "#Getting parameters\n",
    "model.summary()"
   ]
  },
  {
   "cell_type": "markdown",
…
